Model: "model"
_________________________________________________________________
Layer (type)                 Output Shape              Param #   
=================================================================
input_1 (InputLayer)         [(None, 256, 256, 1)]     0         
_________________________________________________________________
Conv_1 (Conv2D)              (None, 256, 256, 64)      640       
_________________________________________________________________
MaxPool_1 (MaxPooling2D)     (None, 128, 128, 64)      0         
_________________________________________________________________
Conv_2 (Conv2D)              (None, 128, 128, 128)     73856     
_________________________________________________________________
MaxPool_2 (MaxPooling2D)     (None, 64, 64, 128)       0         
_________________________________________________________________
Conv_3 (Conv2D)              (None, 64, 64, 128)       147584    
_________________________________________________________________
UpSample_1 (UpSampling2D)    (None, 128, 128, 128)     0         
_________________________________________________________________
Conv_4 (Conv2D)              (None, 128, 128, 64)      73792     
_________________________________________________________________
UpSample_2 (UpSampling2D)    (None, 256, 256, 64)      0         
_________________________________________________________________
conv2d (Conv2D)              (None, 256, 256, 1)       577       
=================================================================
Total params: 296,449
Trainable params: 296,449
Non-trainable params: 0
_________________________________________________________________
Epoch 1/60
66/66 [==============================] - 373s 6s/step - loss: 0.0673 - precision: 0.9675 - recall: 0.9833 - accuracy: 7.7234e-09
Epoch 2/60
66/66 [==============================] - 366s 6s/step - loss: 0.0098 - precision: 0.9973 - recall: 0.9499 - accuracy: 1.4010e-07
…
